…
    results_root: D:\Engineering Books\SEMISTERS\sem 8\Project\PROJECT_IMPLEMENTATION\CResMD-master\CResMD-master\results\deblurring_blur2_noise30
    log: D:\Engineering Books\SEMISTERS\sem 8\Project\PROJECT_IMPLEMENTATION\CResMD-master\CResMD-master\results\deblurring_blur2_noise30
  ]
  is_train: False

24-04-05 20:34:26.708 - INFO: Dataset [LQDataset - blur2_noise30] is created.
24-04-05 20:34:26.709 - INFO: Number of test images in [blur2_noise30]: 2
24-04-05 20:34:27.092 - INFO: Network G structure: DataParallel - CResMDNet, with parameters: 2,557,708
24-04-05 20:34:27.092 - INFO: CResMDNet(
  (global_scale): Linear(in_features=2, out_features=3, bias=True)
  (conv_first): Conv2d(3, 64, kernel_size=(3, 3), stride=(2, 2), padding=(1, 1))
  (recon_trunk): Sequential(
    (0): ResidualBlock_CRes(
      (conv1): Conv2d(64, 64, kernel_size=(3, 3), stride=(1, 1), padding=(1, 1))
      (conv2): Conv2d(64, 64, kernel_size=(3, 3), stride=(1, 1), padding=(1, 1))
      (act): ReLU(inplace=True)
      (local_scale): Linear(in_features=2, out_features=64, bias=True)
    )
    (1): ResidualBlock_CRes(
      (conv1): Conv2d(64, 64, kernel_size=(3, 3), stride=(1, 1), padding=(1, 1))
      (conv2): Conv2d(64, 64, kernel_size=(3, 3), stride=(1, 1), padding=(1, 1))
      (act): ReLU(inplace=True)
      (local_scale): Linear(in_features=2, out_features=64, bias=True)
    )
    (2): ResidualBlock_CRes(
      (conv1): Conv2d(64, 64, kernel_size=(3, 3), stride=(1, 1), padding=(1, 1))
      (conv2): Conv2d(64, 64, kernel_size=(3, 3), stride=(1, 1), padding=(1, 1))
      (act): ReLU(inplace=True)
      (local_scale): Linear(in_features=2, out_features=64, bias=True)
    )
    (3): ResidualBlock_CRes(
      (conv1): Conv2d(64, 64, kernel_size=(3, 3), stride=(1, 1), padding=(1, 1))
      (conv2): Conv2d(64, 64, kernel_size=(3, 3), stride=(1, 1), padding=(1, 1))
      (act): ReLU(inplace=True)
      (local_scale): Linear(in_features=2, out_features=64, bias=True)
    )
    (4): ResidualBlock_CRes(
      (conv1): Conv2d(64, 64, kernel_size=(3, 3), stride=(1, 1), padding=(1, 1))
      (conv2): Conv2d(64, 64, kernel_size=(3, 3), stride=(1, 1), padding=(1, 1))
      (act): ReLU(inplace=True)
      (local_scale): Linear(in_features=2, out_features=64, bias=True)
    )
    (5): ResidualBlock_CRes(
      (conv1): Conv2d(64, 64, kernel_size=(3, 3), stride=(1, 1), padding=(1, 1))
      (conv2): Conv2d(64, 64, kernel_size=(3, 3), stride=(1, 1), padding=(1, 1))
      (act): ReLU(inplace=True)
      (local_scale): Linear(in_features=2, out_features=64, bias=True)
    )
    (6): ResidualBlock_CRes(
      (conv1): Conv2d(64, 64, kernel_size=(3, 3), stride=(1, 1), padding=(1, 1))
      (conv2): Conv2d(64, 64, kernel_size=(3, 3), stride=(1, 1), padding=(1, 1))
      (act): ReLU(inplace=True)
      (local_scale): Linear(in_features=2, out_features=64, bias=True)
    )
    (7): ResidualBlock_CRes(
      (conv1): Conv2d(64, 64, kernel_size=(3, 3), stride=(1, 1), padding=(1, 1))
      (conv2): Conv2d(64, 64, kernel_size=(3, 3), stride=(1, 1), padding=(1, 1))
      (act): ReLU(inplace=True)
      (local_scale): Linear(in_features=2, out_features=64, bias=True)
    )
    (8): ResidualBlock_CRes(
      (conv1): Conv2d(64, 64, kernel_size=(3, 3), stride=(1, 1), padding=(1, 1))
      (conv2): Conv2d(64, 64, kernel_size=(3, 3), stride=(1, 1), padding=(1, 1))
      (act): ReLU(inplace=True)
      (local_scale): Linear(in_features=2, out_features=64, bias=True)
    )
    (9): ResidualBlock_CRes(
      (conv1): Conv2d(64, 64, kernel_size=(3, 3), stride=(1, 1), padding=(1, 1))
      (conv2): Conv2d(64, 64, kernel_size=(3, 3), stride=(1, 1), padding=(1, 1))
      (act): ReLU(inplace=True)
      (local_scale): Linear(in_features=2, out_features=64, bias=True)
    )
    (10): ResidualBlock_CRes(
      (conv1): Conv2d(64, 64, kernel_size=(3, 3), stride=(1, 1), padding=(1, 1))
      (conv2): Conv2d(64, 64, kernel_size=(3, 3), stride=(1, 1), padding=(1, 1))
      (act): ReLU(inplace=True)
      (local_scale): Linear(in_features=2, out_features=64, bias=True)
    )
    (11): ResidualBlock_CRes(
      (conv1): Conv2d(64, 64, kernel_size=(3, 3), stride=(1, 1), padding=(1, 1))
      (conv2): Conv2d(64, 64, kernel_size=(3, 3), stride=(1, 1), padding=(1, 1))
      (act): ReLU(inplace=True)
      (local_scale): Linear(in_features=2, out_features=64, bias=True)
    )
    (12): ResidualBlock_CRes(
      (conv1): Conv2d(64, 64, kernel_size=(3, 3), stride=(1, 1), padding=(1, 1))
      (conv2): Conv2d(64, 64, kernel_size=(3, 3), stride=(1, 1), padding=(1, 1))
      (act): ReLU(inplace=True)
      (local_scale): Linear(in_features=2, out_features=64, bias=True)
    )
    (13): ResidualBlock_CRes(
      (conv1): Conv2d(64, 64, kernel_size=(3, 3), stride=(1, 1), padding=(1, 1))
      (conv2): Conv2d(64, 64, kernel_size=(3, 3), stride=(1, 1), padding=(1, 1))
      (act): ReLU(inplace=True)
      (local_scale): Linear(in_features=2, out_features=64, bias=True)
    )
    (14): ResidualBlock_CRes(
      (conv1): Conv2d(64, 64, kernel_size=(3, 3), stride=(1, 1), padding=(1, 1))
      (conv2): Conv2d(64, 64, kernel_size=(3, 3), stride=(1, 1), padding=(1, 1))
      (act): ReLU(inplace=True)
      (local_scale): Linear(in_features=2, out_features=64, bias=True)
    )
    (15): ResidualBlock_CRes(
      (conv1): Conv2d(64, 64, kernel_size=(3, 3), stride=(1, 1), padding=(1, 1))
      (conv2): Conv2d(64, 64, kernel_size=(3, 3), stride=(1, 1), padding=(1, 1))
      (act): ReLU(inplace=True)
      (local_scale): Linear(in_features=2, out_features=64, bias=True)
    )
    (16): ResidualBlock_CRes(
      (conv1): Conv2d(64, 64, kernel_size=(3, 3), stride=(1, 1), padding=(1, 1))
      (conv2): Conv2d(64, 64, kernel_size=(3, 3), stride=(1, 1), padding=(1, 1))
      (act): ReLU(inplace=True)
      (local_scale): Linear(in_features=2, out_features=64, bias=True)
    )
    (17): ResidualBlock_CRes(
      (conv1): Conv2d(64, 64, kernel_size=(3, 3), stride=(1, 1), padding=(1, 1))
      (conv2): Conv2d(64, 64, kernel_size=(3, 3), stride=(1, 1), padding=(1, 1))
      (act): ReLU(inplace=True)
      (local_scale): Linear(in_features=2, out_features=64, bias=True)
    )
    (18): ResidualBlock_CRes(
      (conv1): Conv2d(64, 64, kernel_size=(3, 3), stride=(1, 1), padding=(1, 1))
      (conv2): Conv2d(64, 64, kernel_size=(3, 3), stride=(1, 1), padding=(1, 1))
      (act): ReLU(inplace=True)
      (local_scale): Linear(in_features=2, out_features=64, bias=True)
    )
    (19): ResidualBlock_CRes(
      (conv1): Conv2d(64, 64, kernel_size=(3, 3), stride=(1, 1), padding=(1, 1))
      (conv2): Conv2d(64, 64, kernel_size=(3, 3), stride=(1, 1), padding=(1, 1))
      (act): ReLU(inplace=True)
      (local_scale): Linear(in_features=2, out_features=64, bias=True)
    )
    (20): ResidualBlock_CRes(
      (conv1): Conv2d(64, 64, kernel_size=(3, 3), stride=(1, 1), padding=(1, 1))
      (conv2): Conv2d(64, 64, kernel_size=(3, 3), stride=(1, 1), padding=(1, 1))
      (act): ReLU(inplace=True)
      (local_scale): Linear(in_features=2, out_features=64, bias=True)
    )
    (21): ResidualBlock_CRes(
      (conv1): Conv2d(64, 64, kernel_size=(3, 3), stride=(1, 1), padding=(1, 1))
      (conv2): Conv2d(64, 64, kernel_size=(3, 3), stride=(1, 1), padding=(1, 1))
      (act): ReLU(inplace=True)
      (local_scale): Linear(in_features=2, out_features=64, bias=True)
    )
    (22): ResidualBlock_CRes(
      (conv1): Conv2d(64, 64, kernel_size=(3, 3), stride=(1, 1), padding=(1, 1))
      (conv2): Conv2d(64, 64, kernel_size=(3, 3), stride=(1, 1), padding=(1, 1))
      (act): ReLU(inplace=True)
      (local_scale): Linear(in_features=2, out_features=64, bias=True)
    )
    (23): ResidualBlock_CRes(
      (conv1): Conv2d(64, 64, kernel_size=(3, 3), stride=(1, 1), padding=(1, 1))
      (conv2): Conv2d(64, 64, kernel_size=(3, 3), stride=(1, 1), padding=(1, 1))
      (act): ReLU(inplace=True)
      (local_scale): Linear(in_features=2, out_features=64, bias=True)
    )
    (24): ResidualBlock_CRes(
      (conv1): Conv2d(64, 64, kernel_size=(3, 3), stride=(1, 1), padding=(1, 1))
      (conv2): Conv2d(64, 64, kernel_size=(3, 3), stride=(1, 1), padding=(1, 1))
      (act): ReLU(inplace=True)
      (local_scale): Linear(in_features=2, out_features=64, bias=True)
    )
    (25): ResidualBlock_CRes(
      (conv1): Conv2d(64, 64, kernel_size=(3, 3), stride=(1, 1), padding=(1, 1))
      (conv2): Conv2d(64, 64, kernel_size=(3, 3), stride=(1, 1), padding=(1, 1))
      (act): ReLU(inplace=True)
      (local_scale): Linear(in_features=2, out_features=64, bias=True)
    )
    (26): ResidualBlock_CRes(
      (conv1): Conv2d(64, 64, kernel_size=(3, 3), stride=(1, 1), padding=(1, 1))
      (conv2): Conv2d(64, 64, kernel_size=(3, 3), stride=(1, 1), padding=(1, 1))
      (act): ReLU(inplace=True)
      (local_scale): Linear(in_features=2, out_features=64, bias=True)
    )
    (27): ResidualBlock_CRes(
      (conv1): Conv2d(64, 64, kernel_size=(3, 3), stride=(1, 1), padding=(1, 1))
      (conv2): Conv2d(64, 64, kernel_size=(3, 3), stride=(1, 1), padding=(1, 1))
      (act): ReLU(inplace=True)
      (local_scale): Linear(in_features=2, out_features=64, bias=True)
    )
    (28): ResidualBlock_CRes(
      (conv1): Conv2d(64, 64, kernel_size=(3, 3), stride=(1, 1), padding=(1, 1))
      (conv2): Conv2d(64, 64, kernel_size=(3, 3), stride=(1, 1), padding=(1, 1))
      (act): ReLU(inplace=True)
      (local_scale): Linear(in_features=2, out_features=64, bias=True)
    )
    (29): ResidualBlock_CRes(
      (conv1): Conv2d(64, 64, kernel_size=(3, 3), stride=(1, 1), padding=(1, 1))
      (conv2): Conv2d(64, 64, kernel_size=(3, 3), stride=(1, 1), padding=(1, 1))
      (act): ReLU(inplace=True)
      (local_scale): Linear(in_features=2, out_features=64, bias=True)
    )
    (30): ResidualBlock_CRes(
      (conv1): Conv2d(64, 64, kernel_size=(3, 3), stride=(1, 1), padding=(1, 1))
      (conv2): Conv2d(64, 64, kernel_size=(3, 3), stride=(1, 1), padding=(1, 1))
      (act): ReLU(inplace=True)
      (local_scale): Linear(in_features=2, out_features=64, bias=True)
    )
    (31): ResidualBlock_CRes(
      (conv1): Conv2d(64, 64, kernel_size=(3, 3), stride=(1, 1), padding=(1, 1))
      (conv2): Conv2d(64, 64, kernel_size=(3, 3), stride=(1, 1), padding=(1, 1))
      (act): ReLU(inplace=True)
      (local_scale): Linear(in_features=2, out_features=64, bias=True)
    )
  )
  (upconv): Conv2d(64, 256, kernel_size=(3, 3), stride=(1, 1), padding=(1, 1))
  (pixel_shuffle): PixelShuffle(upscale_factor=2)
  (HRconv): Conv2d(64, 64, kernel_size=(3, 3), stride=(1, 1), padding=(1, 1))
  (conv_last): Conv2d(64, 3, kernel_size=(3, 3), stride=(1, 1), padding=(1, 1))
  (act): ReLU(inplace=True)
)
24-04-05 20:34:27.128 - INFO: Loading model for G [../experiments/pretrain_models/2D_modulation.pth] ...
24-04-05 20:34:27.160 - INFO: Model [SRModel] is created.
24-04-05 20:34:27.161 - INFO: 
Modulating [blur2_noise30]...
24-04-05 20:34:27.162 - INFO: setting coef to 0.00
